gcn_egfr_best_model.pth (torch, 183034 bytes, 17 tensors)

convs.0.bias f4 [128]
0.000120977464 -6.322867e-05 -0.00010710773 -5.5637727e-05 -5.133359e-06 3.0151226e-05 1.2401326e-05 1.8404979e-05
4.7941285e-07 3.7094727e-05 -6.566387e-05 -1.8731427e-05 -8.005468e-05 4.2262654e-05 5.7661113e-05 -1.7626357e-05
2.3905308e-05 3.5541354e-05 -1.4824065e-05 3.4899855e-05 -1.4577171e-05 -6.2099396e-05 -4.3678254e-05 1.3283214e-05
-1.6945141e-06 -1.6859367e-05 8.575167e-05 4.1270818e-05 -3.6471218e-05 -3.9966108e-06 -7.0779715e-05 -1.6723852e-05
0.00013278607 -0.00022080913 1.5704434e-05 -5.9060243e-05 2.4184428e-06 -4.7327194e-05 8.282881e-06 2.2404602e-06
-5.4015298e-05 -0.00010484163 3.6769707e-05 -1.1822771e-05 4.5619956e-05 5.310839e-05 5.5269724e-05 4.5614233e-06
9.976853e-05 -3.4200239e-06 -4.2604643e-06 2.0967796e-06 -1.269333e-05 0.00011101655 -7.1670147e-06 -6.836328e-05
3.997546e-05 1.2005705e-05 2.7422146e-05 -1.939839e-05 2.3062323e-05 -3.1447933e-05 -1.1636033e-05 8.5014335e-06
6.202579e-05 4.421365e-05 1.522373e-05 2.5778163e-05 -1.04182145e-05 6.478001e-05 2.8508231e-05 1.7310795e-05
1.7284068e-05 -2.1788226e-05 -2.6932723e-05 1.5751384e-05 -6.215796e-06 -3.546406e-05 4.535007e-05 6.172572e-05
-7.538976e-05 -1.4777366e-05 2.325864e-05 -8.0453894e-05 -2.7184242e-05 -9.036252e-05 1.9766792e-05 5.6645018e-05
2.08606e-05 4.625675e-05 5.5119035e-06 1.655847e-05 -3.2960656e-05 -0.0001088801 2.8800274e-05 -6.592583e-05
1.6740198e-05 -5.7958972e-05 1.2097706e-05 8.324781e-05 -3.7099548e-05 2.5337176e-06 2.7728092e-05 4.270356e-06
-1.34183165e-05 3.954738e-05 7.985355e-05 -4.9386552e-05 4.5501965e-05 -2.1187188e-06 -8.609754e-05 -0.00014440744
-5.079739e-05 1.8143543e-05 0.00018146202 0.00012674593 -0.0001578521 5.261447e-05 7.585154e-05 -3.6137477e-05
-2.784734e-05 1.427124e-05 -1.8810155e-05 -0.00011034369 -1.786644e-05 1.0134008e-05 5.731905e-05 -5.000556e-05
00000000: 48b5 fd38 a299 84b8 069f e0b8 8e5c 69b8
00000010: 383f acb6 44ed fc37 4a0f 5037 6464 9a37
00000020: 00b1 0035 2996 1b38 06b5 89b8 6f21 9db7
00000030: 07e3 a7b8 2e43 3138 26d9 7138 50dc 93b7
00000040: 4288 c837 3d12 1538 e0b4 78b7 6f61 1238
00000050: 7990 74b7 5c3b 82b8 2b33 37b8 f8da 5e37
00000060: 106f e3b5 376d 8db7 94d5 b338 341a 2d38
00000070: acf8 18b8 a01a 86b6 926f 94b8 334a 8cb7
00000080: 7d3c 0b39 0089 67b9 04bd 8337 74b7 77b8
00000090: 884c 2236 3081 46b8 b4f6 0a37 d05a 1636
000000a0: 7c8e 62b8 6cde dbb8 2c39 1a38 6a5a 46b7
000000b0: 0e58 3f38 b3c0 5e38 6ad1 6738 540e 9936
000000c0: d23a d138 9083 65b6 1cf5 8eb6 66b6 0c36
000000d0: 70f5 54b7 8ed1 e838 307c f0b6 425e 8fb8
000000e0: 53ab 2738 1c6c 4937 9c08 e637 bab9 a2b7
000000f0: f675 c137 f6e6 03b8 6238 43b7 61a1 0e37
00000100: d813 8238 0c72 3938 6c69 7f37 2f3e d837
00000110: e4c9 2eb7 81da 8738 f624 ef37 a636 9137
00000120: 41fd 9037 dcc5 b6b7 95ed e1b7 d721 8437
00000130: 4891 d0b6 3fbf 14b8 4436 3e38 be72 8138
00000140: 921a 9eb8 4eec 77b7 8d1b c337 5bb9 a8b8
00000150: b709 e4b7 0281 bdb8 ddd0 a537 2096 6d38
00000160: ccfd ae37 cf03 4238 e4f2 b836 0be7 8a37
00000170: 3c3f 0ab8 8f56 e4b8 1e98 f137 a941 8ab8
00000180: 4d6d 8c37 f918 73b8 40f7 4a37 5495 ae38
00000190: 569b 1bb8 f008 2a36 a099 e837 144a 8f36
000001a0: 3b1f 61b7 addf 2538 0c77 a738 6824 4fb8
000001b0: 5dd9 3e38 502f 0eb6 448f b4b8 146c 17b9
000001c0: 480f 55b8 f632 9837 d746 3e39 1ae7 0439
000001d0: 1a85 25b9 5bae 5c38 7c12 9f38 5292 17b8
000001e0: b599 e9b7 826e 6f37 80ca 9db7 5168 e7b8
000001f0: e3df 95b7 3c05 2a37 dc69 7038 10bd 51b8

convs.0.lin.weight f4 [128, 12]
-0.0009061053 0.076726794 0.018987874 -0.060906813 0.097027585 0.19287618 0.0019469332 4.495e-41
0.015347203 -0.18025415 -0.04751129 0.07279634 -0.03785401 -0.1088448 -0.0791937 0.14855087
0.15402564 0.07620474 6.267565e-05 -1.9198187e-38 0.007593117 -0.13505444 -0.1093553 -0.047784444
-0.096302345 0.019292435 -0.059839636 0.13848522 0.065252654 -0.13232999 0.018095864 -1.30563e-40
0.0062204706 0.035436522 -0.08164824 0.16794161 -0.017719904 -0.08511992 -0.052661955 0.16427827
-0.08421027 -0.20956805 -0.0412602 -1.60481e-40 0.026374253 0.018052815 0.04900815 -0.23981832
-0.04662628 0.08528504 0.0062511396 0.021885768 0.025548631 0.041145377 -4.0813113e-05 4.73113e-40
0.0034917505 -0.026099367 0.02629583 -0.03311193 0.00059699855 0.02112954 -0.033534814 -0.015498129
0.18930647 -0.104739055 1.8193166e-05 -3.46859e-40 -0.011814881 0.051357128 0.07432719 0.105999626
-0.052197725 -0.16116229 -0.0067157717 -0.052734043 -0.014003359 0.115510754 -0.00032792593 1.27552e-40
-0.0065318765 -0.03648128 0.12033146 0.0047939406 -0.027155045 -0.07332877 0.007937532 -0.13308483
-0.05689269 0.100192055 7.029999e-05 -5.843758e-38 -0.0019373812 -0.10924594 0.25567558 0.010671825
0.0126343975 -0.1248619 -0.057690386 -0.092625156 0.13815773 -0.023443958 -0.0017279824 1.153053e-39
0.020341678 0.10144755 0.046998363 0.2549272 -0.024939824 -0.062126275 -0.10456423 -0.11446759
0.12218257 -0.030320134 -0.007872792 -1.243051e-39 0.0024127506 0.044406638 -0.05760937 0.1435629
-0.08867836 0.089218855 -0.096715085 -0.12359129 -0.054701865 -0.11287711 -0.00045656125 -1.3839e-41
0.006810832 -0.14594555 0.0021908195 0.008362825 -0.03332674 0.008816034 -0.18327154 0.120159306
-0.012425518 -0.15108941 -0.0066362275 1.03583e-39 -0.027660208 0.052639253 -0.2559735 -0.05556618
0.0047743046 0.15392257 -0.027766505 -0.050528206 0.16286916 -0.099879995 -0.00075988355 -3.54167e-40
-0.0028546643 0.07365953 0.045603815 0.10521397 -0.043628406 -0.192925 0.16203152 0.20824747
0.17902029 -0.10850677 0.16794857 6.08797e-40 -0.075110056 -0.17694512 -0.0270457 -0.06318877
0.025666164 0.12801892 -0.018419653 0.008999957 0.04954872 0.003061101 -0.004532299 3.49614e-40
-0.015615986 0.037714172 -0.29033035 0.014833449 -0.05279799 0.09983927 -0.03424039 0.023912523
0.040219326 0.08281887 -9.604861e-05 9.62941e-40 0.012491637 -0.046319813 -0.0667606 -0.28628516
0.0077277855 -0.018108433 -0.032518342 0.09832704 -0.17833509 0.07598832 0.005739208 4.32637e-40
0.009819746 0.01422966 -0.109458655 -0.0023745466 -0.005728331 0.036732282 -0.02869068 0.013988295
-0.0034667428 -0.049968004 -0.0026889485 1.097545e-39 -0.0029668277 -0.022549685 -0.15808184 -0.11103983
0.03190841 0.14958419 0.06813651 -0.13205211 -0.11237305 0.15075405 -0.00033191429 -1.24937e-39
-0.020756757 0.037406564 0.12350352 0.052782614 0.0009469877 0.13176465 -0.06445836 -0.08978383
0.18895623 -0.03692638 -0.00018951276 2.96038e-40 -0.009317082 0.045104317 -0.04746771 0.13868628
-0.054570466 0.013341244 -0.0018945801 -0.12316674 -0.0229048 0.023609525 0.00040568406 -1.5289e-40
0.0021620982 0.013493885 -0.16619445 -0.09268517 -0.046671733 -0.13632777 0.018943485 -0.08445099
00000000: b387 6dba f022 9d3d 758c 9b3c 6c79 79bd
00000010: 66b6 c63d 5581 453e 3d30 ff3a 4d7d 0000
00000020: d672 7b3c 8b94 38be 339b 42bd 3f16 953d
00000030: ce0c 1bbd 06ea debd 4e30 a2bd b81d 183e
00000040: e6b8 1d3e 3b11 9c3d bc70 8338 bc0c d180
00000050: afcf f83b b64b 0abe acf5 dfbd 9fb9 43bd
00000060: 2a3a c5bd 2b0b 9e3c 681a 75bd 12cf 0d3e
00000070: 2fa3 853d 8381 07be c73d 943c f56b 0180
00000080: 17d5 cb3b e325 113d 3137 a7bd e3f8 2b3e
00000090: 5529 91bc 5a53 aebd 10b4 57bd 9038 283e
000000a0: 6f76 acbd 0299 56be 7500 29bd 5bbf 0180
000000b0: d10e d83c 7fe3 933c c5bc 483d ef92 75be
000000c0: 33fb 3ebd eca9 ae3d 5cd6 cc3b c849 b33c
000000d0: 5d4b d13c 0e88 283d bf2e 2bb8 d926 0500
000000e0: dad5 643b 57ce d5bc 5a6a d73c 60a0 07bd
000000f0: e57f 1c3a db17 ad3c cd5b 09bd ddeb 7dbc
00000100: 8ed9 413e 6e81 d6bd 879d 9837 e7c6 0380
00000110: 3493 41bc da5b 523d db38 983d 5516 d93d
00000120: 48cd 55bd ba07 25be fa0f dcbb a7ff 57bd
00000130: 586e 65bc e790 ec3d 79ed abb9 9063 0100
00000140: 5a09 d6bb 656d 15bd 5770 f63d 7d16 9d3b
00000150: 4274 debc 652d 96bd 6c0c 023c 6447 08be
00000160: 4f08 69bd 7e31 cd3d 056e 9338 0d15 9f81
00000170: baef fdba 56bc dfbd e9e7 823e e1d8 2e3c
00000180: 8100 4f3c 99b7 ffbd c14c 6cbd 42b2 bdbd
00000190: 3879 0d3e 8b0d c0bc 787d e2ba 3e8e 0c00
000001a0: 97a3 a63c bcc3 cf3d 5b81 403d d185 823e
000001b0: 9a4e ccbc 1f78 7ebd c525 d6bd fc6d eabd
000001c0: db3a fa3d ee61 f8bc e2fc 00bc 1f89 0d80
000001d0: 3d1f 1e3b bce3 353d cef7 6bbd 2702 133e
000001e0: 009d b5bd 60b8 b63d 8f12 c6bd 6e1d fdbd
000001f0: 100f 60bd 1d2c e7bd 9d5e efb9 9426 0080
00000200: 662d df3b c072 15be da93 0f3b 3b04 093c
00000210: 9f81 08bd 2071 103c 89ab 3bbe 1516 f63d
00000220: 6694 4bbc 2fb7 1abe b674 d9bb 7947 0b00
00000230: a997 e2bc 429c 573d f50e 83be 5d99 63bd
00000240: c571 9c3b e19d 1d3e 9576 e3bc aaf6 4ebd
00000250: 2cc7 263e e28d ccbd ec32 47ba 46db 0380
00000260: 5215 3bbb cfda 963d 11cb 3a3d 6c7a d73d
00000270: b3b3 32bd 228e 45be 97eb 253e d33e 553e
00000280: 1851 373e cc38 debd b6fa 2b3e 14a1 0600
00000290: 4dd3 99bd 1a31 35be f28e ddbc 1d69 81bd
000002a0: d941 d23c 6417 033e d0e4 96bc 8e74 133c
000002b0: 99f3 4a3d c19c 483b ae83 94bb 95ce 0300
000002c0: 31da 7fbc 2d7a 1a3d 2ea6 94be ff07 733c
000002d0: b542 58bd 8878 cc3d a73f 0cbd 32e4 c33c
000002e0: 05bd 243d f19c a93d b46d c9b8 4a7c 0a00
000002f0: b9a9 4c3c d8b9 3dbd c8b9 88bd f893 92be
00000300: 5d39 fd3b 2358 94bc f431 05bd b05f c93d
00000310: 799d 36be c49f 9b3d f70f bc3b 04b6 0400
00000320: 00e3 203c 8523 693c dc2b e0bd 489e 1bbb
00000330: b9b4 bbbb 9774 163d b808 ebbc 292f 653c
00000340: 4b32 63bb 40ab 4cbd 1239 30bb 82f3 0b00
00000350: 1c6f 42bb 1eba b8bc 35e0 21be da68 e3bd
00000360: 65b2 023d 992c 193e 288b 8b3d ab38 07be
00000370: d723 e6bd 455f 1a3e c804 aeb9 bc9a 0d80
00000380: 130a aabc a037 193d 6aef fc3d 9532 583d
00000390: 453f 783a 50ed 063e bf02 84bd 96e0 b7bd
000003a0: be7d 413e 1e40 17bd f2b7 46b9 3c39 0300
000003b0: ada6 18bc 4ebf 383d 806d 42bd c703 0e3e
000003c0: 4885 5fbd 3c95 5a3c 8f53 f8ba d83e fcbd
000003d0: d9a2 bbbc c368 c13c feb1 d439 32aa 0180
000003e0: fdb1 0d3b 7515 5d3c e12e 2abe b9d1 bdbd
000003f0: dc2a 3fbd 8299 0bbe 5e2f 9b3c a4f4 acbd

convs.1.bias f4 [128]
2.7259463e-05 3.3194617e-06 1.26526975e-05 -2.3413853e-05 -1.5061278e-06 5.9777212e-06 -6.807665e-06 -2.4923445e-05
9.708461e-06 -6.3128995e-05 2.4700146e-05 -1.5001435e-05 9.515315e-06 4.62547e-05 -1.37459865e-05 7.135435e-06
1.2756583e-05 5.0254255e-07 -6.882297e-06 6.685974e-06 1.0218031e-06 5.199565e-06 2.7638913e-05 2.2599643e-05
-1.1211403e-05 6.8342033e-06 -2.5779518e-06 3.5637094e-38 4.2083066e-05 7.2886905e-06 2.1035412e-05 1.0346245e-05
-1.2742012e-05 -4.1891544e-06 -4.0996562e-07 2.8710674e-05 5.557208e-06 -1.6973436e-06 -5.470247e-08 -2.9412295e-06
-1.7867813e-05 2.3403363e-05 2.4936378e-05 3.906339e-06 3.5763524e-06 -4.1227213e-06 8.6081127e-07 1.4114689e-05
8.656882e-06 -4.883537e-05 -2.4614925e-05 -1.0166345e-05 6.4468804e-06 3.7902282e-08 2.3733486e-05 6.583514e-07
1.4739367e-05 6.412924e-05 2.8096947e-06 -1.4627029e-05 1.7689235e-06 -5.8841106e-06 -6.8510435e-06 1.6435619e-05
-1.7945335e-05 3.5801986e-06 2.2540025e-06 -2.2710417e-05 -7.1209333e-06 8.947855e-05 -2.4505935e-06 -6.2428826e-06
-3.2046915e-05 1.2155609e-05 4.8171714e-06 1.4705688e-05 -2.014784e-05 2.022458e-06 -2.7406459e-05 -8.957104e-07
6.0366654e-07 4.2845695e-06 -1.5986549e-05 -6.3646485e-06 -1.1942656e-05 3.3675355e-05 1.0444661e-05 8.813477e-06
-1.0971646e-05 -8.97888e-06 1.1947583e-05 -2.8654476e-06 8.7012895e-06 2.9008452e-05 -6.283118e-05 -1.3709962e-06
2.1756976e-05 -8.692055e-06 -8.3523173e-07 -6.718788e-06 1.432675e-05 3.2962848e-06 -5.264782e-05 -3.626485e-05
-9.315161e-06 -3.0349636e-06 1.3766483e-05 -4.4410626e-07 -9.654363e-06 -1.6838667e-05 5.30481e-07 8.901434e-07
-2.2719214e-05 -5.143706e-06 -4.091542e-06 4.0625913e-05 -2.815211e-05 4.946091e-05 1.0282162e-05 2.0621412e-05
-8.085095e-06 1.2951719e-05 -3.8876497e-06 -6.7612564e-07 -4.798094e-05 1.653989e-05 6.428132e-06 -1.0553289e-05
00000000: 40ab e437 ebc3 5e36 ec46 5437 de68 c4b7
00000010: 2826 cab5 3c94 c836 666d e4b6 b112 d1b7
00000020: 86e1 2237 1f64 84b8 2933 cf37 acae 7bb7
00000030: f7a3 1f37 9b01 4238 909e 66b7 ec6c ef36
00000040: 1b05 5637 76e6 0635 7bee e6b6 1458 e036
00000050: e324 8935 ec77 ae36 1dda e737 5d94 bd37
00000060: 9c18 3cb7 5c51 e536 e000 2db6 dc06 4201
00000070: 5982 3038 6091 f436 3475 b037 c994 2d37
00000080: 86c6 55b7 9090 8cb6 3f19 dcb4 b4d7 f037
00000090: 0e78 ba36 48d0 e3b5 00f2 6ab3 f061 45b6
000000a0: d6e2 95b7 5752 c437 772e d137 3213 8336
000000b0: 4401 7036 e855 8ab6 8012 6735 21ce 6c37
000000c0: 063d 1137 94d4 4cb8 267c ceb7 1f90 2ab7
000000d0: 4852 d836 00ca 2233 4617 c737 90b9 3035
000000e0: 1949 7737 207d 8638 308e 3c36 9c66 75b7
000000f0: c06b ed35 2070 c5b6 04e2 e5b6 39df 8937
00000100: 5089 96b7 5843 7036 7843 1736 4082 beb7
00000110: 5af0 eeb6 6ea6 bb38 e074 24b6 f479 d1b6
00000120: 1d6a 06b8 f1ef 4b37 30a3 a136 73b8 7637
00000130: 2803 a9b7 90b9 0736 ece6 e5b7 c070 70b5
00000140: a60b 2235 2cc4 8f36 da1a 86b7 ea8f d5b6
00000150: 515d 48b7 a33e 0d38 7a3b 2f37 98dd 1337
00000160: dc12 38b7 ffa3 16b7 7a72 4837 044c 40b6
00000170: c1fb 1137 2d57 f337 3cc4 83b8 1203 b8b5
00000180: c082 b637 18d4 11b7 b034 60b5 f371 e1b6
00000190: ec5c 7037 be35 5d36 2bd2 5cb8 161b 18b8
000001a0: 5048 1cb7 47ac 4bb6 98f6 6637 806d eeb4
000001b0: 2cf9 21b7 c340 8db7 6066 0e35 30f2 6e35
000001c0: 2495 beb7 1998 acb6 144a 89b6 be65 2a38
000001d0: 3228 ecb7 3f74 4f38 8d81 2c37 25fc ac37
000001e0: 38a5 07b7 364b 5937 a872 82b6 007f 35b5
000001f0: 243f 49b8 25bf 8a37 3cb1 d736 080e 31b7

convs.1.lin.weight f4 [128, 128]
-0.025704486 -0.044854097 0.0042837677 0.026030594 -0.03636475 -0.024157144 0.0056646834 -0.002460671
-0.1115626 -0.04221054 -0.041412618 0.0671126 0.06381177 0.024844788 0.038202696 -0.08972975
0.01891469 0.099446654 0.019667367 0.059830993 0.0077401013 0.011128123 -0.06934452 -0.0111319665
-0.017686164 0.05228346 -0.019999372 -0.007000051 -0.051751126 -0.046627127 0.00168814 -0.002732716
-0.06574167 -0.017410967 0.04043717 0.014682972 -0.038150933 0.01772547 0.026055457 -0.1403928
0.011866406 -0.029330714 0.05100498 -0.06924355 -0.039472543 0.036154747 -0.0033037837 -0.00651036
0.12868959 -0.006519667 -0.048369937 0.011185582 -0.045347705 0.069379374 0.020538198 -0.035192583
0.059017222 -0.03425524 -0.09861013 -0.08367985 0.01071783 -0.09075169 -0.028211536 -0.02506152
0.038594794 -0.028944356 -0.0584071 0.023872616 0.04996169 -0.10659234 -0.03109362 -0.03151418
-0.037821814 0.003885899 0.090953894 0.055996712 0.024573363 0.025709806 0.034890335 0.053292487
-0.04266046 0.040124174 0.115185626 0.13155226 0.021225147 -0.07355051 0.0029070615 0.05185643
0.055349663 0.047924303 -0.0102418745 0.031535402 -0.08232605 0.03653542 0.04338208 -0.0027737145
0.044733126 -0.004689315 0.075640075 0.009698861 -0.053003415 -0.037133675 -0.012831953 0.054973863
-0.0644873 -0.1217477 0.0072730165 -0.0017041278 -0.0076380535 -0.0020489485 -0.017001318 -0.0077799535
0.08765645 -0.01126919 -0.011807842 0.01111471 0.098367125 -0.04926293 0.10429491 0.00377657
0.014430726 -0.012483178 0.02407639 -0.061362788 -0.0041356008 0.0062310374 0.045533832 -0.048905656
-0.08076161 -0.09384042 0.019004313 0.042016882 -0.05949908 -0.0029928559 -0.0032658179 0.027762543
-0.093549065 -0.06952939 -0.060808167 0.009749497 0.046378154 0.03862175 0.05799155 -0.10873512
-0.02216371 0.030860452 0.006057875 0.06709764 0.04241516 -0.010252891 -0.07286056 -0.005594395
-0.0065052393 0.026318664 -0.01481155 -0.014581648 -0.037891738 -0.04473742 -0.05222747 -0.012143282
-0.058897723 -0.00086235564 0.048296675 0.014357465 -0.05970308 0.00035641665 0.046282712 -0.14604649
0.032830026 -0.066499285 0.03288478 -0.029537596 -0.007863067 0.007741989 -0.06302628 -0.01387933
0.086985976 -0.06359821 -0.028181108 -0.027491888 -0.077301405 0.002147412 0.032228116 -0.06834719
0.043407444 -0.06179855 -0.022811538 -0.049417496 -0.053329185 -0.12047104 -0.0027815662 -0.04626863
0.037932444 0.0070022224 -0.018966153 0.0035557912 0.05077374 -0.11068709 -0.040328793 0.012114697
0.039367642 -0.0076382696 0.12284825 0.058428556 0.033622213 0.042722877 0.033715386 0.07245077
-0.07741868 0.0230475 0.10805391 0.08163911 0.04092626 -0.019367948 0.029148813 -0.032220077
-0.017126681 0.0048844814 -0.0030551075 0.033499 -0.0941446 0.012213019 0.023347596 0.078409575
0.050559364 -0.010247104 0.054281063 0.008470242 -0.07283796 -0.023517799 0.0021513514 0.0054963813
-0.07037871 -0.11659844 0.0010298236 0.06614105 -0.0057815965 5.9877442e-05 0.0053327945 0.04728598
0.050883505 -0.022353763 -0.037309684 -0.00017005698 0.14099675 -0.10200097 0.09150102 0.014832431
0.0013346238 -0.015354746 0.073015615 0.00032840157 -0.010189501 0.010889077 0.05170676 -0.043196585
00000000: 3792 d2bc eeb8 37bd d95e 8c3b 1d3e d53c
00000010: 34f3 14bd 34e5 c5bc cf9e b93b 3543 21bb
00000020: ef7a e4bd f6e4 2cbd 47a0 29bd 5572 893d
00000030: bfaf 823d 4c87 cb3c 6e7a 1c3d 3bc4 b7bd
00000040: fbf2 9a3c b0aa cb3d 751d a13c 5811 753d
00000050: ada0 fd3b bb52 363c 8004 8ebd da62 36bc
00000060: 93e2 90bc 2e27 563d b9d5 a3bc af60 e5bb
00000070: fdf8 53bd 16fc 3ebd 9444 dd3a 5e17 33bb
00000080: 92a3 86bd 72a1 8ebc 72a1 253d d990 703c
00000090: 2744 1cbd 0135 913c 4172 d53c 21c3 0fbe
000000a0: 506b 423c f746 f0bc 99ea 503d 90cf 8dbd
000000b0: f6ad 21bd 0017 143d 4b84 58bb dc54 d5bb
000000c0: 34c7 033e eea2 d5bb 8e1f 46bd bb43 373c
000000d0: 84be 39bd c616 8e3d b93f a83c 1926 10bd
000000e0: 0bbc 713d 394f 0cbd 1cf4 c9bd 5760 abbd
000000f0: d699 2f3c 06dc b9bd e11b e7bc d14d cdbc
00000100: 9315 1e3d b71c edbc 493c 6fbd 8190 c33c
00000110: a1a4 4c3d 164d dabd 0cb8 febc 0315 01bd
00000120: 0ceb 1abd 91aa 7e3b 0946 ba3d cf5c 653d
00000130: 144e c93c 5f9d d23c 2be9 0e3d 3949 5a3d
00000140: bcbc 2ebd 3f59 243d 71e6 eb3d a3b5 063e
00000150: 5ce0 ad3c a6a1 96bd 6684 3e3b 6867 543d
00000160: 54b6 623d 464c 443d 89cd 27bc 442b 013d
00000170: 8f9a a8bd 2aa6 153d 68b1 313d 35c7 35bb
00000180: 153a 373d d3a8 99bb 2fe9 9a3d f9e7 1e3c
00000190: 1c1a 59bd 7b19 18bd 1d3d 52bc 462c 613d
000001a0: eb11 84bd dc56 f9bd 7c52 ee3b 0a5d dfba
000001b0: a348 fabb a747 06bb 5946 8bbc fbee febb
000001c0: 3a85 b33d 69a2 38bc ae75 41bc 791a 363c
000001d0: b474 c93d edc7 49bd 9298 d53d 5580 773b
000001e0: da6e 6c3c 3e86 4cbc d93b c53c 8c57 7bbd
000001f0: ef83 87bb bb2d cc3b af81 3a3d 4c51 48bd
00000200: 5866 a5bd 682f c0bd efae 9b3c e519 2c3d
00000210: 4fb5 73bd ca23 44bb 5507 56bb 466e e33c
00000220: a796 bfbd 6d65 8ebd fc11 79bd 5bbc 1f3c
00000230: 05f7 3d3d d731 1e3d 8c88 6d3d 85b0 debd
00000240: ab90 b5bc 0fcf fc3c 2481 c63b 7d6a 893d
00000250: 85bb 2d3d befb 27bc eb37 95bd 3051 b7bb
00000260: e729 d5bb 3d9a d73c 25ac 72bc dde7 6ebc
00000270: 5e34 1bbd 963e 37bd 79ec 55bd 9ef4 46bc
00000280: bd3e 71bd b50f 62ba bcd2 453d 933b 6b3c
00000290: 388b 74bd 6fdd ba39 f192 3d3d 368d 15be
000002a0: c778 063d c730 88bd 31b2 063d d4f8 f1bc
000002b0: 18d4 00bc 83b0 fd3b ec13 81bd 2166 63bc
000002c0: b425 b23d c73f 82bd 11dc e6bc ab36 e1bc
000002d0: 3350 9ebd 98bb 0c3b a101 043d 9df9 8bbd
000002e0: 01cc 313d 7a20 7dbd 43df babc 006a 4abd
000002f0: b46f 5abd 85b9 f6bd f04a 36bb 2d84 3dbd
00000300: 0d5f 1b3d e672 e53b e85e 9bbc 4708 693b
00000310: 20f8 4f3d eaaf e2bd ce2f 25bd b97c 463c
00000320: f73f 213d 734a fabb dd97 fb3d c852 6f3d
00000330: 72b7 093d 2ffe 2e3d 2519 0a3d 1261 943d
00000340: af8d 9ebd 1cce bc3c 5e4b dd3d 6832 a73d
00000350: 4ba2 273d 88a9 9ebc 7ec9 ee3c 33f9 03bd
00000360: 414d 8cbc 000e a03b 3338 48bb 3f36 093d
00000370: e2ce c0bd 1d19 483c 7543 bf3c 3395 a03d
00000380: 5617 4f3d 78e3 27bc d255 5e3d c5c6 0a3c
00000390: 122c 95bd 66a8 c0bc b0fd 0c3b fd1a b43b
000003a0: b722 90bd 2acb eebd 25fb 863a f574 873d
000003b0: 8c73 bdbb ea24 7b38 b9be ae3b f2ae 413d
000003c0: 396b 503d 3d1f b7bc 0ad2 18bd 5351 32b9
000003d0: 7461 103e e2e5 d0bd e364 bb3d ba03 733c
000003e0: 8bee ae3a 7992 7bbc 3689 953d 502d ac39
000003f0: ddf1 26bc 1968 323c 78ca 533d e7ee 30bd

convs.2.bias f4 [128]
0.05842171 0.013051489 0.0010080654 0.0043899072 -0.009619349 -0.0010018477 -0.039969217 -0.003586907
-0.031480428 0.0029586654 -0.055873144 -0.035548262 -0.0069954153 0.041410156 -0.073805116 0.00076596986
-0.038567424 -0.03723812 0.01019247 -0.06193419 -0.056428164 -0.02860353 -0.08084734 -0.05974881
-0.022469908 -0.03206652 -0.008757557 -0.0657216 -0.0046944222 0.0019491415 0.031192906 -0.0056374473
0.05465484 0.00303801 -0.044538755 0.003800273 -0.06837274 0.05184846 -0.018698929 -0.047819875
0.052103244 -0.010325085 0.024928516 0.0038822955 -0.0006695246 -0.063580364 0.0327867 0.022841739
0.010371396 -0.07331433 -0.020008417 -0.0064601526 -0.0035381108 -0.011728386 -0.0021016232 0.083147496
-0.026137765 0.021558167 -0.0030432763 0.074005276 -0.055753127 0.0012216817 -0.04903895 0.0011332891
-0.0024062337 0.003966342 -0.004869999 -0.011181108 0.0075225635 0.015090991 0.0006251743 -0.0533172
0.047983393 -0.02749551 0.0070089735 0.005550561 -0.05918778 6.0100705e-05 0.06993213 0.005097067
0.021647159 0.02941197 -0.013670494 0.012884663 0.0020029745 0.00097542646 -0.005739933 -0.05176872
0.03283438 -0.0014320763 0.059193786 0.03243881 -0.0072423145 0.0092040645 -0.0034774293 -0.010940653
0.034466233 0.0156130055 -0.073216796 -0.045102235 0.008834665 -0.008218136 0.003470178 -0.0038703387
0.003290246 -0.0050043347 -0.005796847 0.028806375 0.03678705 0.06095734 0.06716627 -0.023186358
-0.016055718 0.055490114 0.019143894 -0.0016642053 0.049987994 0.0096564805 0.03868699 0.0033826327
-0.0010843807 0.017833458 -0.03137175 0.07678223 -0.01795439 -0.006038308 -0.0038039451 0.0003754017
00000000: 9a4b 6f3d ead5 553c 1021 843a 36d9 8f3b
00000010: 799a 1dbc 6e50 83ba c3b6 23bd 5012 6bbb
00000020: 9ff1 00bd 2be6 413b 3ddb 64bd 0e9b 11bd
00000030: cc39 e5bb b29d 293d 2327 97bd 5ecb 483a
00000040: e0f8 1dbd 0087 18bd 51fe 263c b5ae 7dbd
00000050: 3821 67bd f351 eabc 4a93 a5bd 2bbb 74bd
00000060: d012 b8bc 2f58 03bd db7b 0fbc 0c99 86bd
00000070: abd3 99bb 567a ff3a 4488 ff3c 56ba b8bb
00000080: c1dd 5f3d 5a19 473b 456e 36bd 000e 793b
00000090: 0207 8cbd 0d5f 543d 7f2e 99bc c6de 43bd
000000a0: 366a 553d 8c2a 29bc e336 cc3c 1c6e 7e3b
000000b0: 0983 2fba 6c36 82bd 594b 063d 991e bb3c
000000c0: caec 293c d325 96bd b1e8 a3bc b0af d3bb
000000d0: a6df 67bb 6b28 40bc 63bb 09bb 3c49 aa3d
000000e0: de1e d6bc c19a b03c b471 47bb 1490 973d
000000f0: 645d 64bd d620 a03a 11dd 48bd df8a 943a
00000100: e7b1 1dbb 17f8 813b 8394 9fbb f730 37bc
00000110: d67f f63b 3440 773c bde2 233a 2363 5abd
00000120: 3c8a 443d 443e e1bc 88ab e53b 7be1 b53b
00000130: e36e 72bd a414 7c38 9438 8f3d 4c05 a73b
00000140: 6255 b13c 5ff1 f03c 35fa 5fbc 321a 533c
00000150: 5644 033b c3b3 7f3a 0c16 bcbb 700b 54bd
00000160: 587d 063d 82b4 bbba 2f75 723d 8fde 043d
00000170: f050 edbb a5cc 163c 95e5 63bb 6d40 33bc
00000180: 772c 0d3d b1cd 7f3c b0f2 95bd 1fbd 38bd
00000190: 45bf 103c 5ca5 06bc ed6b 633b 82a5 7dbb
000001a0: 2ba1 573b 67fb a3bb 7af3 bdbb 59fb eb3c
000001b0: 05ae 163d 67ae 793d 788e 893d 51f1 bdbc
000001c0: 4887 83bc 9a49 633d a8d3 9c3c 7721 daba
000001d0: 36c0 4c3d 3736 1e3c 4076 1e3d 29af 5d3b
000001e0: c721 8eba 7917 923c aa7f 00bd 0040 9d3d
000001f0: 1615 93bc 00dd c5bb 9c4b 79bb 90d1 c439

convs.2.lin.weight f4 [128, 128]
-0.019924661 0.017420806 0.01071671 0.012850698 0.029250149 -0.009667597 -0.0036631038 0.014250714
-0.035915855 0.08405279 -0.04479445 -0.05781684 -0.00360658 0.044707056 0.03628833 0.009195614
-0.01899153 -0.002935334 0.00096278975 -0.016126135 0.034618642 -0.037821863 0.04738492 0.004518526
-0.037318736 0.014849301 -0.0042961803 2.862365e-07 -0.031271648 -0.04981708 -0.06383199 -0.056451205
0.0694032 0.055009898 0.012556064 0.0018744586 -0.05701145 -0.007650181 0.0106217405 -0.01945342
-0.019452635 -0.026510464 0.0034268363 -0.0021124736 0.020273238 0.0047266823 0.01935442 -0.08189068
0.07848992 -0.02759027 -0.015458639 -0.010862307 -0.023709487 -0.03466969 0.09609569 0.05875287
-0.042290043 -0.02254726 -0.030672546 0.0028210157 0.04025496 -0.04248588 0.003367282 0.07691
0.032635547 0.07753749 0.02206023 -0.025713045 -0.007649161 -0.029721508 -0.020776788 -0.023817804
0.016632678 -0.003946478 -0.059556838 -0.03876359 -0.021515572 0.025489973 0.08351562 -0.03874744
-0.021561498 -0.026586019 -0.025836589 -0.013244172 -0.055507146 0.0043291957 0.041589357 -0.053275358
0.014839575 0.024912424 -0.036963392 -0.074156865 0.03175857 0.03961567 -0.004384232 0.01603475
0.019244857 0.05194211 -0.021149065 0.020519933 -0.06928829 -0.050154377 -0.040464375 0.03510342
-0.017413069 0.07297376 0.02854614 0.052834578 -0.0059990264 -0.0057199323 0.035086446 0.0076572127
-0.0360098 0.0021412468 -0.004540774 0.0124335205 -0.023080274 -0.013114847 0.009991143 -0.035046376
0.023378383 0.013168589 -0.026476465 -0.05095129 -0.04077349 -0.015943427 -0.02369989 -0.013537478
-0.01852465 0.0069102026 -0.0129851 -0.0037002943 0.022859229 -0.015367407 0.0123092355 -0.015056648
-0.009211796 0.03657734 -0.005244522 -0.012261022 -0.03554166 0.055429883 0.059773117 -0.016832862
-0.00018971748 0.01306433 -0.019257136 0.008713302 0.025893807 -0.010839769 0.0014857893 0.019089958
-0.035047997 0.014517761 0.013325873 2.8271058e-08 0.015253529 -0.017562188 -0.03825944 -0.051723693
0.05286169 0.039727606 0.016479326 0.043903165 -0.0154882185 -0.030175207 -0.03665294 0.0012523239
-0.038186368 0.023211239 -0.007712449 -0.002352522 -0.01418952 0.015218001 0.015041574 -0.065009475
0.08235784 0.010236048 -0.025889007 0.009269136 -0.009637038 0.008466994 0.045061916 0.04252417
-0.017095182 0.022402847 -0.013446574 0.018407606 0.006988995 -0.017150175 0.0054636747 0.07500365
-0.0012806712 0.056607198 -0.011133465 -0.035804205 0.005611211 0.017812744 -0.0041437834 -0.0021318942
0.012041052 -0.047253437 -0.056048244 -0.028451378 0.0059076557 0.03006746 0.051838662 0.014994534
0.016024949 -0.018629437 -0.0017476748 0.019620446 -0.02146456 0.03883726 0.014559963 -0.04560739
0.014338617 0.018640067 -0.010139723 -0.021848109 0.03781835 0.036795337 -0.0017689839 0.009130739
0.031103376 0.055572797 -0.01729249 -0.02295314 -0.007481401 -0.033232402 -0.01920703 0.04303094
-0.036747567 0.042668007 0.032459203 0.062000234 -0.014197677 -0.00080551486 -0.006999949 -0.009120475
-0.042581983 0.00054309523 0.0019627057 -0.0019992748 -0.007978346 0.008436382 -0.0071946527 -0.05314714
0.062354717 -0.04785035 -0.00044952054 -0.015704198 0.013505738 0.0017079079 -0.045009155 -0.010788669
00000000: 0b39 a3bc 14b6 8e3c 2495 2f3c bc8b 523c
00000010: 029e ef3c d764 1ebc af10 70bb d47b 693c
00000020: 811c 13bd df23 ac3d 637a 37bd 5ad1 6cbd
00000030: 5f5c 6cbb bf1e 373d 12a3 143d 33a9 163c
00000040: 2094 9bbc bc5e 40bb ba63 7c3a f51a 84bc
00000050: 47cc 0d3d 19eb 1abd b116 423d 2510 943b
00000060: 88db 18bd 7c4a 733c f9c6 8cbb 0cac 9934
00000070: b316 00bd ff0c 4cbd 59ba 82bd 6139 67bd
00000080: 4423 8e3d 0f52 613d f3b7 4d3c 65b0 f53a
00000090: d784 69bd 5fae fabb cf06 2e3c c75c 9fbc
000000a0: 225b 9fbc 792c d9bc c694 603b 6d71 0abb
000000b0: 1014 a63c 49e2 9a3b 298d 9e3c 4db6 a7bd
000000c0: 53bf a03d fd04 e2bc 3b46 7dbc d1f7 31bc
000000d0: 663a c2bc ce01 0ebd d1cd c43d d9a6 703d
000000e0: 5338 2dbd 08b5 b8bc fe44 fbbc cae0 383b
000000f0: 63e2 243d ad05 2ebd 9ead 5c3b fd82 9d3d
00000100: daac 053d facb 9e3d a8b7 b43c 2aa4 d2bc
00000110: d0a5 fabb 857a f3bc 1534 aabc 8e1d c3bc
00000120: 4141 883c 7551 81bb dff1 73bd 92c6 1ebd
00000130: 6d41 b0bc 59d0 d03c 3d0a ab3d a3b5 1ebd
00000140: bda1 b0bc ecca d9bc 41a7 d3bc 15fe 58bc
00000150: 765b 63bd eddb 8d3b 9a59 2a3d 4337 5abd
00000160: b021 733c 2415 cc3c ed66 17bd 8edf 97bd
00000170: 4615 023d 0a44 223d 9ba9 8fbb 4f5b 833c
00000180: 64a7 9d3c 40c1 543d ce40 adbc 6b19 a83c
00000190: 05e7 8dbd ad6e 4dbd f9bd 25bd 9bc8 0f3d
000001a0: daa5 8ebc 4473 953d 98d9 e93c 1269 583d
000001b0: 7b93 c4bb 456e bbbb ceb6 0f3d 5be9 fa3b
000001c0: 037f 13bd 2954 0c3b c6ca 94bb f7b5 4b3c
000001d0: d812 bdbc a8df 56bc e4b1 233c ca8c 0fbd
000001e0: 0684 bf3c 11c1 573c 2ce5 d8bc 4db2 50bd
000001f0: 1a02 27bd ca9b 82bc 4626 c2bc 4ccc 5dbc
00000200: 02c1 97bc fb6e e23b 75bf 54bc a380 72bb
00000210: 4743 bb3c 94c7 7bbc adac 493c 29b0 76bc
00000220: 13ed 16bc 1fd2 153d 3dda abbb 74e2 48bc
00000230: 2294 11bd 720a 633d a8d4 743d 12e5 89bc
00000240: e6ee 46b9 c60b 563c 24c1 9dbc 3dc2 0e3c
00000250: 401f d43c 4999 31bc d1be c23a 8b62 9c3c
00000260: 7d8e 0fbd e7db 6d3c c354 5a3c b7d8 f232
00000270: f0e9 793c 94de 8fbc eeb5 1cbd 39dc 53bd
00000280: 8085 583d 6ab9 223d a7ff 863c ced3 333d
00000290: 4cc2 7dbc ff31 f7bc 6521 16bd 0425 a43a
000002a0: 4f69 1cbd 7f25 be3c b6b8 fcbb c52c 1abb
000002b0: 297b 68bc ec54 793c ef70 763c b023 85bd
000002c0: 3aab a83d 19b5 273c 2f15 d4bc 93dd 173c
000002d0: abe4 1dbc 26b9 0a3c d892 383d d32d 2e3d
000002e0: 320b 8cbc 2d86 b73c 054f 5cbc 8ccb 963c
000002f0: f003 e53b 867e 8cbc a008 b33b 839b 993d
00000300: 32dc a7ba f3dc 673d 2369 36bc 6ea7 12bd
00000310: 40de b73b 08ec 913c 93c8 87bb 40b7 0bbb
00000320: d547 453c d28c 41bd d892 65bd dd12 e9bc
00000330: 0295 c13b 0950 f63c c754 543d a2ab 753c
00000340: c146 833c c39c 98bc 3c12 e5ba 0fbb a03c
00000350: 72d6 afbc d213 1f3d e98c 6e3c d1ce 3abd
00000360: 85ec 6a3c 0eb3 983c 1521 26bc cefa b2bc
00000370: 6ae7 1a3d b5b6 163d 40dd e7ba 1899 153c
00000380: 82cc fe3c 4da0 633d fba8 8dbc 3908 bcbc
00000390: 8a26 f5bb b31e 08bd 1058 9dbc 3641 303d
000003a0: 9e84 16bd a6c4 2e3d f1f3 043d f5f3 7d3d
000003b0: 609d 68bc 3029 53ba d45f e5bb 0b6e 15bc
000003c0: 726a 2ebd 815e 0e3a bda0 003b 4406 03bb
000003d0: 9cb7 02bc c038 0a3c 1fc1 ebbb d1b0 59bd
000003e0: a967 7f3d bbfe 43bd a0ad ebb9 17a6 80bc
000003f0: 2c47 5d3c e1db df3a 855b 38bd f5c2 30bc

lin1.weight f4 [64, 128]
0.029867092 -0.0009436603 8.490798e-06 0.005081444 0.0010140752 0.014235893 0.00011399787 0.0037668636
-0.04300669 0.0015675097 -0.036461867 0.0089876475 -0.004062755 0.024546938 -0.07481484 -0.008677113
-0.017296847 0.00590105 0.009256309 -0.075711094 -0.03423624 0.012781742 -0.055814732 -0.009412192
-0.0036148159 -0.017019778 0.0046342844 -0.050351318 -0.007748248 -0.0020449732 0.024655001 0.0030261872
0.07064414 -0.0089264605 -0.0059253606 0.01294232 -0.061712082 0.06697615 0.00028719188 -0.059968308
0.040128883 -0.012619117 -0.01492341 -0.0011112608 -0.016764225 -0.061439157 -0.0118171545 0.03967052
-0.008207327 -0.03948423 0.006527751 -0.0013931477 -0.004745594 0.0039773067 0.0060950117 0.07972989
-0.014705255 -0.006656933 -0.008876818 0.08534799 -0.02756106 -0.0045516803 -0.052349705 -0.003811365
0.005579345 0.006628232 0.0009998048 -0.004315978 0.006641767 -0.005105972 0.0055816174 -0.016456736
0.082035124 0.016478391 0.010013973 0.013848941 -0.042877905 0.0022341418 0.068812095 0.004657542
0.0305032 0.021170354 0.0011369095 -0.0076977145 0.0012989154 0.0067078583 0.0033499792 -0.0077213123
0.015519763 0.0009353641 0.05265956 0.044334836 -0.004126372 0.014020657 -0.018911181 0.0043458752
0.021881867 -0.0024804121 -0.08047669 -0.027169636 0.018036237 0.0001687076 0.005773804 0.018464064
0.0060098367 0.0007349506 0.009021715 0.030614693 0.0019682471 0.07135349 0.023131583 0.011486049
0.0094984975 0.034150466 -0.006750579 -0.0063924957 0.01004998 0.008301571 0.014038204 -0.013950619
0.0058636167 0.0012986837 -0.0014370121 0.11852306 0.001186002 -0.0046185483 0.0056012156 0.009895115
0.0051760823 0.00844988 0.012334748 0.010394215 -0.004882729 0.01507175 0.020910513 -0.0093421405
-0.030849852 0.013973777 0.052281268 0.019170266 0.001320133 0.026760127 -0.020487957 -0.015215319
-0.010791777 0.0012054052 -0.011855678 0.031267237 -0.015277409 0.011862161 -0.002535875 0.016241806
0.0047913142 -0.01181156 -0.0043665804 0.03665644 -0.0037092268 -0.011079498 -0.0656701 0.006615117
-0.039752018 -0.009806093 0.025122417 0.015316259 0.010596313 -0.06345198 -0.0005879983 0.036798846
0.026982771 -0.004544028 -0.03435239 -0.0044407453 -0.014612276 -0.030029647 -0.0072458736 0.04150099
-0.0008795215 0.03042978 0.013143903 0.0064605586 -0.0021237312 0.0026583867 0.0020397194 -0.016740805
-0.019528858 -0.012256895 -0.008530877 -0.019972868 -0.025511002 -0.0021069755 0.055745352 0.0091027515
0.013410483 0.009773436 0.011992308 -0.013968653 0.040137816 -0.008805537 0.033841044 0.041458692
-0.0647747 0.029198695 -0.006593304 -0.008456139 -0.007288473 0.0025811961 0.0029428275 0.0082704555
0.07670833 0.015121883 0.010168749 -0.0061672614 0.01084366 -0.0014101381 0.016744545 0.047774654
-0.0078983605 -0.00406093 -0.013702705 -0.08262077 -0.00012839312 0.010443708 -0.01913189 0.00797587
-0.04082144 -0.0090855695 0.006436041 -0.008752389 -0.0048743943 0.00416715 -0.013385857 0.03872009
-0.00053186604 -0.0037596738 0.020924771 0.03432036 0.0020249397 -0.0696524 -0.025171913 0.007067222
0.017793145 0.017411597 -0.05702048 -0.013832506 0.009533288 0.007953192 0.011317947 -0.014107016
0.0076485504 0.00935258 -0.009358334 -0.013711957 -0.0030724125 0.005812603 0.014328738 0.00871872
00000000: d5ab f43c f95f 77ba b373 0e37 3e82 a63b
00000010: b8ea 843a aa3d 693c 2412 ef38 7cdd 763b
00000020: c827 30bd e674 cd3a 0a59 15bd ed40 133c
00000030: dc20 85bb a916 c93c 8638 99bd 732a 0ebc
00000040: 1eb2 8dbc 985d c13b c6a7 173c 6b0e 9bbd
00000050: 4d3b 0cbd 836a 513c fd9d 64bd 9835 1abc
00000060: 8ce6 6cbb 106d 8bbc 32db 973b 2f3d 4ebd
00000070: 04e5 fdbb f504 06bb 49f9 c93c ff52 463b
00000080: e0ad 903d 4a40 12bc 8729 c2bb 060c 543c
00000090: cfc5 7cbd cb2a 893d 3e92 9639 54a1 75bd
000000a0: 2f5e 243d 6ac0 4ebc 5181 74bc baa7 91ba
000000b0: 2155 89bc a0a7 7bbd bd9c 41bc 8e7d 223d
000000c0: 0678 06bc 37ba 21bd bfe6 d53b 489a b6ba
000000d0: ee80 9bbb 1154 823b aab8 c73b 6d49 a33d
000000e0: 4fee 70bc 6722 dabb 1370 11bc edca ae3d
000000f0: bbc7 e1bc 4326 95bb a56c 56bd 18c8 79bb
00000100: f0d2 b63b a431 d93b e20b 833a 0c6d 8dbb
00000110: 2ea3 d93b ff4f a7bb 00e6 b63b 47d0 86bc
00000120: 0802 a83d b1fd 863c a611 243c abe6 623c
00000130: bea0 2fbd ae6a 123b 5bed 8c3d 4b9e 983b
00000140: d9e1 f93c 736d ad3c 5a04 953a 1c3d fcbb
00000150: 5e40 aa3a 98cd db3b 538b 5b3b 1003 fdbb
00000160: 9b46 7e3c 3933 753a 8db1 573d 7298 353d
00000170: 8436 87bb e6b6 653c 9feb 9abc d867 8e3b
00000180: 9a41 b33c 698e 22bb f6d0 a4bd db92 debc
00000190: bbc0 933c 1ae7 3039 2e32 bd3b f341 973c
000001a0: 2aee c43b b3a9 403a d1cf 133c aacb fa3c
000001b0: b5fd 003b c721 923d 727e bd3c fb2f 3c3c
000001c0: 969f 1b3c 5ce1 0b3d f633 ddbb 2478 d1bb
000001d0: aca8 243c 5003 083c 7f00 663c 2391 64bc
000001e0: 9523 c03b 9838 aa3a 205a bcba 38bc f23d
000001f0: a073 9b3a 3157 97bb 678a b73b 1f1f 223c
00000200: 209c a93b 5e71 0a3c af17 4a3c 7f4c 2a3c
00000210: 4dff 9fbb 80ef 763c 864c ab3c c70f 19bc
00000220: d4b8 fcbc 45f2 643c e224 563d f60a 9d3c
00000230: 5008 ad3a 0e38 db3c 5cd6 a7bc ac49 79bc
00000240: fecf 30bc b0fe 9d3a 513e 42bc 1312 003d
00000250: 194e 7abc 8259 423c ec30 26bb 890d 853c
00000260: 7500 9d3b 4685 41bc 8815 8fbb 1025 163d
00000270: 8016 73bb c886 35bc 0c7e 86bd a0c3 d83b
00000280: 03d3 22bd bca9 20bc 87cd cd3c 0cf1 7a3c
00000290: 289c 2d3c 1df3 81bd e623 1aba 63ba 163d
000002a0: f90a dd3c 12e6 94bb 17b5 0cbd ac83 91bb
000002b0: 5468 6fbc bc00 f6bc cb6e edbb f1fc 293d
000002c0: b08f 66ba e047 f93c 8659 573c 18b3 d33b
000002d0: 4c2e 0bbb 5438 2e3b d0ac 053b 0324 89bc
000002e0: fcfa 9fbc 25d1 48bc 17c5 0bbc 249e a3bc
000002f0: 73fc d0bc 2f15 0abb 3d55 643d b523 153c
00000300: a4b7 5b3c c320 203c 637b 443c c7dc 64bc
00000310: 8d67 243d 1945 10bc e89c 0a3d 97d0 293d
00000320: 99a8 84bd 1a32 ef3c a50c d8bb 9e8b 0abc
00000330: 25d4 eebb 4929 293b 74dc 403b ce80 073c
00000340: 4219 9d3d c6c1 773c d39a 263c bd16 cabb
00000350: 9ba9 313c 62d4 b8ba db2b 893c 5baf 433d
00000360: 2068 01bc 8d11 85bb 4f81 60bc 1435 a9bd
00000370: 44a1 06b9 161c 2b3c 7bba 9cbc 39ad 023c
00000380: 6234 27bd a4db 14bc 6de5 d23b 2e66 0fbc
00000390: 62b9 9fbb 968c 883b 5b50 5bbc f598 1e3d
000003a0: ed6c 0bba dc64 76bb 6d6a ab3c 8193 0c3d
000003b0: dab4 043b eba5 8ebd 5435 cebc 2894 e73b
000003c0: eec2 913c c4a2 8e3c 4f8e 69bd bca1 62bc
000003d0: 8231 1c3c 1b4e 023c e96e 393c 1d21 67bc
000003e0: b1a0 fa3b 903b 193c b353 19bc 1ea8 60bc
000003f0: 875a 49bb a677 be3b 15c3 6a3c f6d8 0e3c

lin1.bias f4 [64]
0.07829243 0.039157633 -0.013448566 0.015819602 -0.0107814325 -2.6747676e-23 0.029982448 0.052097436
-0.0033699758 0.036518905 0.0187763 0.027562568 -0.008046799 0.015880436 0.102573596 0.04865929
0.012490002 -0.08316997 -0.015058928 0.028113857 0.040852867 0.008548698 0.04131083 0.1220863
0.03807981 0.02905307 0.049843293 0.06389388 0.12745164 0.0041107396 0.07255741 0.05804135
0.037154455 -0.019704217 0.111272 -0.07398249 -0.023263348 0.019145694 0.07753 0.056718905
0.02888424 0.0592852 -0.04183699 -0.010058875 0.01189933 0.034567874 -0.007023634 -0.07473686
-0.024808321 0.011330349 0.018954758 0.013217091 0.025335561 0.035291925 0.06177894 -0.027099289
-0.0038490403 0.043855336 -0.110834315 0.14058843 0.04231832 -0.03602479 -0.051006503 0.042823534
00000000: c857 a03d c163 203d 6057 5cbc 1c98 813c
00000010: 9ba4 30bc 0558 019a c09d f53c 1f64 553d
00000020: d0da 5cbb d994 153d c1d0 993c e5ca e13c
00000030: b9d6 03bc b017 823c 1b12 d23d f74e 473d
00000040: dea2 4c3c 0455 aabd b9b9 76bc 084f e63c
00000050: 5655 273d d70f 0c3c 8b35 293d 6208 fa3d
00000060: 93f9 1b3d b400 ee3c 7b28 4c3d cbda 823d
00000070: af82 023e 62b3 863b fb98 943d c4bc 6d3d
00000080: 452f 183d bd6a a1bc 93e2 e33d 2284 97bd
00000090: c792 bebc 6ed7 9c3c 0cc8 9e3d 1552 683d
000000a0: a49e ec3c 0ad5 723d 435d 2bbd fbcd 24bc
000000b0: 68f5 423c 0b97 0d3d 8326 e6bb a40f 99bd
000000c0: d23a cbbc eea2 393c 0247 9b3c 7f8c 583c
000000d0: 868c cf3c 448e 103d ea0b 7d3d 54ff ddbc
000000e0: 2e40 7cbb a7a1 333d 1afd e2bd 6af6 0f3e
000000f0: fa55 2d3d bb8e 13bd 32ec 50bd bb67 2f3d

lin2.weight f4 [1, 64]
-0.10842112 0.058786247 0.08053737 0.082364365 -0.13269171 -1.2922428e-21 0.06895004 0.08723784
0.08533699 0.079549804 0.10653938 0.10924104 -0.13377136 -0.14478995 -0.14910275 -0.15401329
-0.17238405 -0.22255945 -0.14345095 0.10665748 0.071506366 -0.1484975 -0.1386561 -0.14158265
0.11605038 0.07300076 -0.14834607 -0.14419664 -0.15716355 0.10768239 -0.12670146 0.068465084
0.09439638 0.10592666 -0.12994273 -0.1815005 -0.11748792 0.077561155 -0.1453259 0.09471355
0.114090346 0.10352217 -0.15092838 0.08692862 -0.13975286 -0.13786489 -0.15102693 -0.21071681
0.097161114 -0.15985349 0.1032241 0.11543387 -0.1319248 0.085074045 -0.16429412 0.098200954
-0.13661806 0.07184932 -0.17698114 -0.13110904 -0.15536965 -0.20876867 -0.18501702 0.0906242
00000000: e40b debd d9c9 703d c7f0 a43d a6ae a83d
00000010: 56e0 07be 3947 c39c ae35 8d3d c1a9 b23d
00000020: 29c5 ae3d 02eb a23d 5231 da3d c4b9 df3d
00000030: 5cfb 08be d143 14be 64ae 18be a9b5 1dbe
00000040: 7285 30be a0e6 63be cee4 12be 3d6f da3d
00000050: ee71 923d bb0f 18be ddfb 0dbe 0bfb 10be
00000060: d2ab ed3d 6c81 953d 08e8 17be 49a8 13be
00000070: 7bef 20be 9688 dc3d 07be 01be 6c37 8c3d
00000080: e452 c13d 14f0 d83d b50f 05be 44db 39be
00000090: 829d f0bd 62d8 9e3d 50d0 14be 2df9 c13d
000000a0: 33a8 e93d 6e03 d43d f88c 1abe a207 b23d
000000b0: 601b 0fbe 742c 0dbe cea6 1abe 26c6 57be
000000c0: 68fc c63d a2b0 23be 2867 d33d 9868 ec3d
000000d0: 4b17 07be 4d3b ae3d b83c 28be 951d c93d
000000e0: 9be5 0bbe bc25 933d 8b3a 35be 7341 06be
000000f0: 3919 1fbe 74c7 55be 1a75 3dbe 2e99 b93d

bns.0.weight f4 [128]
0.5151151 0.44543165 0.5100652 0.52436 0.13356517 0.38358086 0.49958655 0.48355347
0.6561854 0.47739363 0.41387972 0.53279245 0.5051973 0.7884199 0.5147367 0.56141007
0.34841004 0.29127273 0.40165395 0.47384083 0.34220666 0.6513704 0.33355922 0.33697814
0.09139443 0.4538187 0.4896185 0.48665965 0.43261606 0.33382958 0.36678264 0.30952242
0.5177471 0.63723207 0.46560097 0.5158343 0.46289185 0.39902762 0.4049606 0.5712226
0.54623556 0.53407025 0.32966438 0.40249473 0.60162765 0.52562416 0.45943558 0.23118183
0.39223206 0.50222516 0.35111102 0.54424673 0.5867656 0.6484754 0.3337897 0.38630238
0.5312845 0.35126975 0.517599 0.45421132 0.21485072 0.545957 0.39763525 0.51605374
0.4889635 0.64127445 0.34275573 0.47278628 0.5335156 0.47874302 0.55378413 0.34458786
0.57219136 0.5234343 0.40975845 0.40987313 0.53295135 0.28253916 0.5433401 0.48525688
0.6617321 0.44283468 0.4082383 0.43217188 0.5581922 0.43505776 0.3963847 0.28729647
0.44661868 0.5384316 0.38924423 0.5566386 0.47285044 0.55035526 0.46421298 0.56721365
0.55746406 0.529015 0.4026373 0.47292346 0.6405308 0.44246408 0.5804198 0.5452769
0.4615711 0.526492 0.4696445 0.50655025 0.48903885 0.5574623 0.5223755 0.52710676
0.62767565 0.18179314 0.81966496 0.33223808 0.49178252 0.5960895 0.56307715 0.28647712
0.39005044 0.1524316 0.45317402 0.6473968 0.42374483 0.4739187 0.48752427 0.47766662
00000000: 95de 033f 9e0f e43e a293 023f 753c 063f
00000010: 4fc5 083e b664 c43e cfc9 ff3e 5294 f73e
00000020: c4fb 273f f06c f43e 0be8 d33e 1665 083f
00000030: 9c54 013f e3d5 493f c9c5 033f 92b8 0f3f
00000040: cd62 b23e b321 953e 96a5 cd3e 449b f23e
00000050: b635 af3e 36c0 263f 46c8 aa3e 6688 ac3e
00000060: 012d bb3d ed5a e83e 47af fa3e 742b f93e
00000070: da7f dd3e b6eb aa3e efca bb3e b979 9e3e
00000080: 138b 043f a421 233f 4063 ee3e b70d 043f
00000090: 2900 ed3e 594d cc3e ff56 cf3e a53b 123f
000000a0: 18d6 0b3f d4b8 083f c5c9 a83e ca13 ce3e
000000b0: 4504 1a3f 4e8f 063f 243b eb3e eeba 6c3e
000000c0: a4d2 c83e d491 003f d3c4 b33e c153 0b3f
000000d0: 4536 163f 7c02 263f 7ce6 aa3e 6dc9 c53e
000000e0: 4302 083f a1d9 b33e 5e81 043f 638e e83e
000000f0: d401 5c3e d7c3 0b3f d996 cb3e 191c 043f
00000100: 6d59 fa3e 902a 243f ae7d af3e 0b11 f23e
00000110: 7a94 083f ce1d f53e ccc4 0d3f d26d b03e
00000120: 227b 123f caff 053f dccb d13e e4da d13e
00000130: 806f 083f f9a8 903e 5618 0b3f 9773 f83e
00000140: 4667 293f 3abb e23e 9c04 d13e a245 dd3e
00000150: afe5 0e3f e4bf de3e eff2 ca3e 8618 933e
00000160: 34ab e43e a7d6 093f 054b c73e de7f 0e3f
00000170: 7419 f23e 15e4 0c3f 53ad ed3e ea34 113f
00000180: f7b5 0e3f 876d 073f 7a26 ce3e 0623 f23e
00000190: d4f9 233f a78a e23e 6496 143f 4497 0b3f
000001a0: 0c53 ec3e 2ec8 063f 3e75 f03e 47ad 013f
000001b0: 4d63 fa3e d9b5 0e3f 67ba 053f 78f0 063f
000001c0: 5aaf 203f fb27 3a3e 90d5 513f 1c1b aa3e
000001d0: ebca fb3e 5299 183f d325 103f 21ad 923e
000001e0: b1b4 c73e 0817 1c3e 6d06 e83e ccbb 253f
000001f0: 15f5 d83e 79a5 f23e c89c f93e b890 f43e

bns.0.bias f4 [128]
-0.07350426 -0.014535662 -0.010577567 -0.06381023 -0.022883039 -0.1590164 -0.031200996 0.0006567858
-0.17747104 -0.20787361 -0.07119293 -0.23036987 -0.18955114 -0.24775249 -0.188305 -0.18455757
-0.099001706 -0.094469294 -0.26732773 -0.16510744 -0.0075345756 -0.20333895 -0.08923474 -0.07817081
-0.038122613 0.014794907 -0.2516466 -0.29289758 -0.20233949 -0.18420228 -0.044940777 -0.05997164
-0.12913077 -0.07621617 -0.22127838 0.017499125 -0.0052178856 -0.1870572 -0.015271499 -0.10066763
-0.30406547 -0.29771248 -0.13035996 -0.011614388 -0.29753077 0.0030050122 -0.09080143 -0.021098314
-0.13355254 -0.15081574 -0.026025435 -0.13820171 -0.21965647 -0.3527811 -0.017162925 -0.32634076
-0.04240748 -0.09753154 -0.0806884 -0.04797323 0.016044274 -0.19077283 0.017082186 -0.2591145
-0.11706319 -0.13884012 -0.020682285 -0.12831303 -0.23871213 -0.14876406 -0.12558845 -0.05162492
-0.12678559 -0.18165962 -0.12785544 -0.09032625 -0.038304318 -0.016287506 -0.017738758 -0.19889359
-0.19866517 -0.15402274 -0.08402839 -0.14861117 -0.030544374 -0.13701203 -0.13073036 0.011654819
-0.11243318 -0.3646084 -0.04131977 -0.08856573 -0.0009621733 -0.044061065 -0.12836337 -0.15714197
-0.13746668 -0.13411859 -0.22346485 -0.20092393 -0.22149152 -0.08899676 -0.23002918 -0.27368683
-0.15400209 -0.14896894 -0.07599429 -0.1315146 -0.16735844 -0.20366564 -0.15882926 -0.22186221
-0.21472718 0.013425028 -0.19728072 -0.2186994 -0.20355566 -0.15671664 -0.17501211 -0.120131455
-0.25941786 -0.030270332 -0.04095815 -0.38421196 -0.115605675 -0.17707154 -0.010340665 -0.13241017
00000000: 6789 96bd fc26 6ebc 884d 2dbc f0ae 82bd
00000010: 3675 bbbc 32d5 22be 3b99 ffbc 262c 2c3a
00000020: f8ba 35be d2dc 54be 99cd 91bd 14e6 6bbe
00000030: b219 42be d4b2 7dbe 07d3 40be a9fc 3cbe
00000040: 68c1 cabd 1e79 c1bd 2edf 88be ed11 29be
00000050: 9ae4 f6bb 1638 50be b4c0 b6bd 0518 a0bd
00000060: 7526 1cbd 5666 723c d3d7 80be acf6 95be
00000070: 1532 4fbe 869f 3cbe d213 38bd d3a4 75bd
00000080: db3a 04be 3917 9cbd cd96 62be 535a 8f3c
00000090: ccfa aabb ec8b 3fbe 4f35 7abc d52a cebd
000000a0: 78ae 9bbe c56d 98be 157d 05be 464a 3ebc
000000b0: f455 98be bdef 443b 1af6 b9bd 5fd6 acbc
000000c0: ffc1 08be 716f 1abe 4b33 d5bc c084 0dbe
000000d0: a0ed 60be b99f b4be 4399 8cbc 2316 a7be
000000e0: 77b3 2dbd 9ebe c7bd f63f a5bd 947f 44bd
000000f0: 486f 833c f459 43be f1ef 8b3c a8aa 84be
00000100: d3be efbd 1b2c 0ebe e56d a9bc 7e64 03be
00000110: f470 74be 9b55 18be 429a 00be a774 53bd
00000120: 15d4 01be fb04 3abe 89ec 02be f8fc b8bd
00000130: fde4 1cbd 606d 85bc df50 91bc c3aa 4bbe
00000140: e26e 4bbe 23b8 1dbe 1417 acbd 872d 18be
00000150: 3238 fabc e24c 0cbe 2ede 05be dbf3 3e3c
00000160: 5e43 e6bd f4ad babe eb3e 29bd f361 b5bd
00000170: 5b3a 7cba 6079 34bd b071 03be d3e9 20be
00000180: 11c4 0cbe 6256 09be f8d3 64be 01bf 4dbe
00000190: acce 62be ef43 b6bd c58c 6bbe ae20 8cbe
000001a0: b9b2 1dbe 508b 18be e5a2 9bbd c3ab 06be
000001b0: 0360 2bbe ba8d 50be 23a4 22be d92f 63be
000001c0: 71e1 5bbe a6f4 5b3c f503 4abe bcf2 5fbe
000001d0: e570 50be 547a 20be 6036 33be 7b07 f6bd
000001e0: 6bd2 84be 7df9 f7bc bcc3 27bd 6eb7 c4be
000001f0: abc2 ecbd 3e52 35be e46b 29bc 8896 07be

bns.0.running_mean f4 [128]
0.1536256 0.04535427 -0.21765614 -0.0010831729 5.1874747e-05 0.11059806 -0.747328 -0.608158
-0.3429605 -0.61294836 -0.8756405 -0.0786549 0.28546324 -0.06189844 0.37590447 -0.061074983
0.21668549 -0.049293105 0.22286865 0.11808328 -0.80998266 -0.80749106 0.27058566 0.0361162
-0.4307578 -0.7872461 0.79592955 -0.13287015 0.860847 0.7433381 -0.06781221 0.73975074
0.48967186 0.09980065 0.12071847 0.035039835 0.9149087 0.22161818 -0.7510177 0.08733818
-0.77467763 -0.21991116 -0.6444328 -0.11969456 0.04927082 -0.71898293 0.7253061 -0.32623658
-0.50297046 1.0375512 -0.49827653 -0.009011436 0.21167289 0.082818024 -0.64620215 -0.76672286
-0.72792804 -0.14229955 -0.31674537 0.37728262 -0.30239213 0.018804377 -0.36477783 -0.5378207
-0.5025087 -0.048316997 0.807577 0.028121924 0.35954893 0.12254758 -0.0021232713 0.4308794
-0.3422558 -0.069172874 -0.47269765 0.5317635 -1.032075 -0.6558219 -0.09854053 -0.58129793
-0.07227997 -0.11238984 -0.5973432 -0.4361081 -0.87073135 0.6839189 0.49812233 -0.41590464
0.4115018 -0.83160734 0.36579743 -0.5927808 -0.2009857 -0.79559493 0.22425097 -0.11196978
-0.15065418 -0.13489743 -0.15336235 -0.045113653 -0.038083144 0.47189233 0.03844701 0.20067945
0.14286432 -0.058615934 0.09950303 0.027920438 0.05841675 -0.028471952 0.26802886 0.034110814
0.103119366 -0.47878835 0.019695686 -0.76136714 -0.25258657 -0.17702827 -0.5937791 -0.2989184
-0.21564099 -0.26674888 -1.238551 -0.3259223 0.5042093 0.06282702 -0.8036322 0.57950354
00000000: 0750 1d3e 66c5 393d 40e1 5ebe 40f9 8dba
00000010: 1694 5938 3c81 e23d e350 3fbf 3eb0 1bbf
00000020: 8598 afbe 2fea 1cbf fa29 60bf d215 a1bd
00000030: 3d28 923e 3889 7dbd 8d76 c03e c329 7abd
00000040: cde2 5d3e 91e7 49bd ae37 643e a6d5 f13d
00000050: 065b 4fbf bcb7 4ebf 348a 8a3e 95ee 133d
00000060: 498c dcbe f688 49bf 0ac2 4b3f 1d0f 08be
00000070: 7860 5c3f 684b 3e3f 21e1 8abd 4e60 3d3f
00000080: 45b6 fa3e 4864 cc3d 3f3b f73d ee85 0f3d
00000090: 7537 6a3f e0ef 623e b242 40bf 5cde b23d
000000a0: 4651 46bf 6430 61be 8cf9 24bf 6c22 f5bd
000000b0: 33d0 493d 440f 38bf a9ad 393f 7b08 a7be
000000c0: acc2 00bf 7ace 843f 1a1e ffbe b4a4 13bc
000000d0: c7c0 583e 7f9c a93d 816d 25bf f347 44bf
000000e0: 7e59 3abf f9b6 11be 732c a2be 302b c13e
000000f0: 24d3 9abe a30b 9a3c 29c4 babe 9eae 09bf
00000100: 69a4 00bf 0be8 45bd 5ebd 4e3f f35f e63c
00000110: cc16 b83e 3afa fa3d 9526 0bbb 3a9c dc3e
00000120: 273c afbe 82aa 8dbd 6d05 f2be a721 083f
00000130: 091b 84bf f2e3 27bf 9ecf c9bd f1cf 14bf
00000140: 8507 94bd a52c e6bd 7ceb 18bf 9049 dfbe
00000150: 40e8 5ebf 4f15 2f3f e409 ff3e 74f1 d4be
00000160: 5db0 d23e 38e4 54bf cd49 bb3e 7cc0 17bf
00000170: 32cf 4dbe 1cac 4bbf 0ca2 653e 6950 e5bd
00000180: 1745 1abe 8d22 0abe 050b 1dbe 18c9 38bd
00000190: 12fd 1bbd df9b f13e 9d7a 1d3d ea7e 4d3e
000001a0: 064b 123e 4317 70bd 3fc8 cb3d 67b9 e43c
000001b0: 6746 6f3d 033e e9bc 143b 893e c8b7 0b3d
000001c0: 3f30 d33d bf23 f5be d958 a13c f5e8 42bf
000001d0: 0753 81be e646 35be e801 18bf d50b 99be
000001e0: fed0 5cbe 4f93 88be d788 9ebf 4adf a6be
000001f0: dc13 013f 74ab 803d d7ba 4dbf 585a 143f
